Model
Model: "sequential"
________________________________________________________________________________
Layer (type)                        Output Shape                    Param #     
================================================================================
dense_2 (Dense)                     (None, 128)                     42752       
________________________________________________________________________________
dropout_1 (Dropout)                 (None, 128)                     0           
________________________________________________________________________________
dense_1 (Dense)                     (None, 128)                     16512       
________________________________________________________________________________
dropout (Dropout)                   (None, 128)                     0           
________________________________________________________________________________
dense (Dense)                       (None, 1)                       129         
================================================================================
Total params: 59,393
Trainable params: 59,393
Non-trainable params: 0
________________________________________________________________________________


