Model
Model: "sequential_18"
________________________________________________________________________________
Layer (type)                        Output Shape                    Param #     
================================================================================
dense_51 (Dense)                    (None, 392)                     130928      
________________________________________________________________________________
dropout_21 (Dropout)                (None, 392)                     0           
________________________________________________________________________________
dense_50 (Dense)                    (None, 392)                     154056      
________________________________________________________________________________
dropout_20 (Dropout)                (None, 392)                     0           
________________________________________________________________________________
dense_49 (Dense)                    (None, 1)                       393         
================================================================================
Total params: 285,377
Trainable params: 285,377
Non-trainable params: 0
________________________________________________________________________________


