Model
Model: "sequential"
________________________________________________________________________________
Layer (type)                        Output Shape                    Param #     
================================================================================
dense_2 (Dense)                     (None, 392)                     130928      
________________________________________________________________________________
dropout_1 (Dropout)                 (None, 392)                     0           
________________________________________________________________________________
dense_1 (Dense)                     (None, 392)                     154056      
________________________________________________________________________________
dropout (Dropout)                   (None, 392)                     0           
________________________________________________________________________________
dense (Dense)                       (None, 1)                       393         
================================================================================
Total params: 285,377
Trainable params: 285,377
Non-trainable params: 0
________________________________________________________________________________


